models/AAPL_improved_model.pt (torch, 234496 bytes, 6 tensors)

conv1.weight f4 [8, 1, 5, 5]
-0.058406226 -0.03426232 0.10716455 -0.06251443 -0.12983301 -0.1397153 0.08419677 0.031961896
-0.31932545 -0.023408115 0.13028683 -0.03738677 -0.14519101 -0.14143477 -0.05286665 0.02419347
-0.26964813 -0.38383022 0.30470932 -0.24341238 -0.06918226 -0.12351223 0.35359263 0.207218
-0.2168556 -0.2614176 0.12303258 -0.12890962 0.20074376 -0.0975828 -0.15555045 -0.029571764
-0.10421403 0.11197493 -0.035812274 0.36938962 0.03673259 -0.41598892 0.07187593 -0.27780586
0.056930043 -0.110114835 -0.09193703 0.14897232 0.037217177 0.03157949 -0.017938895 -0.11277706
-0.053697065 -0.057620298 -0.1514784 -0.06475047 0.18072173 -0.25106227 0.09133728 -0.2518395
-0.29743353 0.041542187 -0.2639932 0.16760932 -0.21834974 0.3443378 -0.042214725 -0.20224693
-0.12488576 0.07574274 0.19105653 -0.026644187 -0.0047595818 -0.018329129 0.020083329 0.0878617
0.020849656 -0.04121404 -0.14938301 0.12160903 0.23192136 -0.09677865 -0.0076080444 -0.22685105
-0.0017400205 0.041769747 -0.3205937 0.03137959 -0.08212534 -0.075350955 0.07857584 -0.22344317
-0.16600303 -0.37611637 0.15130255 -0.32721972 -0.09184697 0.103616506 0.39949298 -0.16170068
0.06385319 0.034062825 0.083615504 0.024398403 0.007629198 -0.107560106 -0.12978554 0.13003848
-0.06681181 -0.09188692 0.10250073 -0.12659024 0.025148027 0.33756974 -0.028983481 -0.18109931
-0.013506169 -0.1337869 0.0725008 -0.24722645 -0.18370113 -0.3743298 -0.29057366 -0.1000386
0.25754732 0.11226986 0.11420072 -0.05786747 0.03008724 0.11216509 -0.41032115 -0.3240917
0.17881598 -0.102567 -0.23138253 -0.011993544 -0.44755486 0.11037608 0.15042919 -0.11397438
0.21760456 0.11655105 -0.03444708 -0.17303969 0.0047522415 0.096500754 0.18866813 0.0365738
0.039214525 0.0008783925 0.0018295738 0.026720325 -0.18254192 0.10991278 -0.109781094 -0.048107233
-0.080742314 0.11787575 0.20015891 -0.0566139 -0.2291816 -0.30188328 0.14752653 0.12343905
0.0634757 0.17144689 -0.2504952 -0.13417022 -0.016554328 -0.18023321 -0.25793615 0.3074527
-0.14118479 -0.19015121 -0.0033305997 -0.21491064 0.24791381 0.01583503 -0.05817367 0.03394783
0.32035014 -0.026276652 -0.198218 0.0024558562 0.13574062 0.17378823 -0.013021543 -0.27147776
0.13056593 -0.07246779 -0.047246374 0.00393491 -0.07394164 -0.10472419 -0.19697107 -0.06497058
-0.26918834 -0.21702017 -0.08599245 0.044857908 0.1331053 -0.20326504 -0.21168232 -0.12271135
00000000: 5e3b 6fbd a556 0cbd 1679 db3d 9107 80bd
00000010: f2f2 04be 8711 0fbe 5b6f ac3d 7aea 023d
00000020: a07e a3be 60c2 bfbc e969 053e df22 19bd
00000030: f4ac 14be 47d4 10be b38a 58bd 6231 c63c
00000040: 520f 8abe 6585 c4be dc02 9c3e 1841 79be
00000050: 6eaf 8dbd fbf3 fcbd 180a b53e f530 543e
00000060: 650f 5ebe 87d8 85be 81f8 fb3d e200 04be
00000070: c68f 4d3e 7ed9 c7bd 9e48 1fbe 7c40 f2bc
00000080: 2a6e d5bd 1d53 e53d e4af 12bd a320 bd3e
00000090: ea74 163d 80fc d4be b033 933d 923c 8ebe
000000a0: 7a2f 693d e383 e1bd 7b49 bcbd 338c 183e
000000b0: 0a71 183d 7f59 013d 97f4 92bc a9f7 e6bd
000000c0: 74f1 5bbd 4303 6cbd 271d 1bbe e59b 84bd
000000d0: 1e0f 393e 3c8b 80be 0a0f bb3d 1bf1 80be
000000e0: 3549 98be 2428 2a3d 1e2a 87be c7a1 2b3e
000000f0: 1397 5fbe 0b4d b03e 59e9 2cbd d219 4fbe
00000100: 1bc4 ffbd 021f 9b3d 53a4 433e e944 dabc
00000110: 44f6 9bbb f826 96bc cb85 a43c d6f0 b33d
00000120: e6cc aa3c 0ed0 28bd dcf7 18be 280e f93d
00000130: cb7c 6d3e e333 c6bd e74c f9bb a44b 68be
00000140: 6611 e4ba c116 2b3d dc24 a4be e387 003d
00000150: 5531 a8bd 9a51 9abd 5fec a03d 49ce 64be
00000160: b3fc 29be 5392 c0be 0eef 1a3e 5889 a7be
00000170: 441a bcbd e434 d43d 588a cc3e dd94 25be
00000180: 76c5 823d 7685 0b3d 9b3e ab3d 29df c73c
00000190: 5afe f93b 7948 dcbd 80e6 04be cf28 053e
000001a0: a1d4 88bd 362f bcbd e7eb d13d dfa0 01be
000001b0: 3c03 ce3c f1d5 ac3e c46e edbc 1972 39be
000001c0: fb48 5dbc 6fff 08be 4d7b 943d ee28 7dbe
000001d0: 261c 3cbe 28a8 bfbe 12c6 94be 0ae1 ccbd
000001e0: 3edd 833e beed e53d 11e2 e93d 7106 6dbd
000001f0: 8479 f63c d0b6 e53d 9d15 d2be 59ef a5be
00000200: 891b 373e a60e d2bd 8bef 6cbe 9280 44bc
00000210: e925 e5be db0c e23d 1c0a 1a3e 666b e9bd
00000220: bbd3 5e3e 51b2 ee3d 6218 0dbd 5131 31be
00000230: b1b8 9b3b 30a2 c53d 3832 413e 69ce 153d
00000240: 699f 203d ec43 663a 4fce ef3a 95e4 da3c
00000250: 45ec 3abe f419 e13d e9d4 e0bd 170c 45bd
00000260: 3a5c a5bd d768 f13d 75f6 4c3e fae3 67bd
00000270: 95ae 6abe 7290 9abe 3211 173e 9dcd fc3d
00000280: 8cff 813d c68f 2f3e e840 80be eb63 09be
00000290: f19c 87bc 0e8f 38be 3510 84be 716a 9d3e
000002a0: bf92 10be 00b7 42be 3146 5abb 8911 5cbe
000002b0: 1edd 7d3e 77b8 813c 8447 6ebd e10c 0b3d
000002c0: ef04 a43e 2242 d7bc a9f9 4abe 6ef2 203b
000002d0: 97ff 0a3e 8bf5 313e 4f58 55bc 22ff 8abe
000002e0: 13b3 053e fe69 94bd 6a85 41bd 6bf0 803b
000002f0: b76e 97bd a379 d6bd c9b2 49be 4c0f 85bd
00000300: 0ed3 89be 893a 5ebe cf1c b0bd edbc 373d
00000310: c14c 083e b624 50be 40c3 58be 1750 fbbd

conv1.bias f4 [8]
-0.0025763526 -0.090251915 -0.101145215 -0.027584659 0.0027037195 -0.13178143 -0.035028983 -0.026840772
00000000: 06d8 28bb ffd5 b8bd 3925 cfbd 39f9 e1bc
00000010: e330 313b b6f1 06be 8d7a 0fbd 2ee1 dbbc

fc1.weight f4 [32, 1800]
-0.0371073 -0.07916105 0.00070654985 -0.022013074 -0.030755678 -0.006523506 -0.02689997 0.06649801
-0.0743247 0.077282384 -0.004800235 -0.04741245 -0.08353509 -0.045178566 -0.039675467 -0.051769603
-0.09725744 -0.05980354 -0.09262194 -0.04156279 0.051767077 0.058599368 -0.018705888 -0.009829295
-0.058229215 -0.040148042 -0.023038633 2.6921189e-06 0.04459734 -0.03466777 -0.032505102 0.11553772
0.08705826 -0.013711252 -0.0014810734 -0.09318271 -0.034653995 0.032802228 0.059873138 0.047689583
-0.039230544 -0.1262906 -0.02687383 0.0011794426 -0.22654228 -0.11881918 0.099298306 -0.14191553
-0.10914161 0.024109919 -0.04873501 0.05618262 0.06081197 -0.0012956607 0.06503896 -0.0895991
-0.10107274 0.04924569 0.14947058 0.008947004 -0.073778346 -0.116025895 0.052558083 0.0413808
0.009343195 0.07660194 -0.03139269 0.025320439 0.05197114 0.036900688 0.03805213 -0.1550706
0.14614864 -0.05739543 0.057206407 0.0015104602 -0.15400547 0.0749494 0.06741169 -0.06373726
-0.060372863 -0.040311564 0.03814488 0.061065983 -0.01473983 0.06845607 0.01000211 0.06996656
-0.07573372 -0.057471897 -0.039836504 0.0032816592 0.04190035 0.060098033 0.004041189 -0.050776664
-0.028198494 0.0018833461 0.04729727 0.16699688 0.015902245 0.04403805 0.027053615 -0.080843315
-0.013170128 0.03707411 0.0762673 -0.04571152 0.023526905 0.016821224 0.025497168 0.085851885
0.040720798 0.015579671 -0.1328035 -0.069969766 -0.09322322 -0.03486871 -0.046012178 -0.06419865
0.014321845 -0.07766723 -0.030647814 -0.111627184 -0.07401914 0.0035024758 -0.023471756 0.031350087
-0.026048899 -0.0521334 -0.11299503 0.018992068 0.032554314 0.03216839 0.08386204 -0.03445501
-0.006884577 -0.026884692 -0.047730193 -0.096843146 -0.06607045 -0.02308788 0.05869827 0.0055242577
0.023359204 0.0034293793 -0.10148307 -0.09086476 0.02090225 -0.03864292 0.1541735 0.00013610283
-0.060623318 0.046818823 0.07890496 0.034329824 -0.008583499 0.09582489 -0.08213885 -0.11940075
0.017238146 -0.014830374 -0.06143578 0.11336113 -0.0071121203 -0.012307617 -0.042907283 -0.16532196
0.004236358 0.023733903 -0.025674483 0.081009194 -0.06705826 0.011443326 0.009637413 -0.093874946
0.09784595 0.02202693 0.06039891 0.05286134 -0.07967672 0.030044693 0.016868934 -0.00090177084
-0.16711116 0.10573145 0.10392502 -0.060850177 -0.03239184 0.041770127 0.08441079 0.042396117
0.044530258 -0.007557568 -0.06501803 0.037268262 -0.04870686 0.05523288 0.024356343 -0.023718346
0.07297953 -0.015339569 -0.06623351 -0.02594378 -0.091544926 -0.07232587 0.04428074 -0.029550135
-0.061874814 0.007667584 -0.010675818 -0.016268233 -0.0007146921 -0.03142068 -0.009400681 0.018945526
0.011597311 0.005397163 0.008337358 -0.0307115 0.0084259845 -0.0059932433 -0.009283806 0.024036558
-0.007559798 0.0004847186 0.009210114 0.057192754 -0.02446386 0.046255916 -0.0036362002 -0.0012814648
0.029416587 -0.08827649 0.0055576502 -0.004021278 0.016559348 -0.024232863 0.006850148 0.060734015
-0.028528431 -0.07089988 -0.01936109 -0.04414964 -0.012138143 0.0012427695 -0.07302241 0.047964826
-0.029819308 0.021832073 -0.097835265 0.093376175 -0.007014464 -0.06656049 0.061915345 0.004801374
00000000: d3fd 17bd 301f a2bd c237 393a c354 b4bc
00000010: 55f3 fbbc 22c3 d5bb 535d dcbc 1c30 883d
00000020: 8c37 98bd 3a46 9e3d 4a4b 9dbb 8f33 42bd
00000030: 7214 abbd 290d 39bd be82 22bd 5d0c 54bd
00000040: e92e c7bd 8ff4 74bd 92b0 bdbd be3d 2abd
00000050: b709 543d e405 703d 173d 99bc 0d0b 21bc
00000060: c281 6ebd 4672 24bd 84bb bcbc 40aa 3436
00000070: b3ab 363d cbff 0dbd 1224 05bd 0a9f ec3d
00000080: 9a4b b23d 29a5 60bc 9420 c2ba 94d6 bebd
00000090: 59f1 0dbd a15b 063d 893d 753d 2756 433d
000000a0: 35b0 20bd 5352 01be 8226 dcbc 8797 9a3a
000000b0: b3fa 67be 7857 f3bd e95c cb3d 4e52 11be
000000c0: a385 dfbd 2a82 c53c 5d9e 47bd bf1f 663d
000000d0: f915 793d 29d3 a9ba 2533 853d bc7f b7bd
000000e0: 3aff cebd d9b5 493d d10e 193e 7496 123c
000000f0: 1a19 97bd fc9e edbd 2547 573d ea7e 293d
00000100: 3314 193c 7ae1 9c3d 9f95 00bd cf6c cf3c
00000110: b1df 543d 2d25 173d 8ddc 1b3d d4ca 1ebe
00000120: fda7 153e 7817 6bbd 4451 6a3d a2fa c53a
00000130: 9cb3 1dbe 127f 993d 240f 8a3d ae88 82bd
00000140: 8949 77bd bd1d 25bd ce3d 1c3d 5320 7a3d
00000150: 547f 71bc b232 8c3d e4df 233c a14a 8f3d
00000160: 481a 9bbd a767 6bbd 9a2b 23bd 1b11 573b
00000170: b49f 2b3d 5b29 763d f36b 843b 31fb 4fbd
00000180: 8700 e7bc 9cda f63a c8ba 413d 3b01 2b3e
00000190: 6d45 823c 3e61 343d 8b9f dd3c 2e91 a5bd
000001a0: 85c7 57bc 06db 173d 0832 9c3d 013c 3bbd
000001b0: 7fbb c03c aacc 893c 70df d03c 1dd3 af3d
000001c0: daca 263d e041 7f3c a4fd 07be 4f4c 8fbd
000001d0: d1eb bebd 7ed2 0ebd 4477 3cbd 957a 83bd
000001e0: 2ca6 6a3c ff0f 9fbd 2011 fbbc cb9c e4bd
000001f0: 5997 97bd cb89 653b d747 c0bc f368 003d
00000200: 8064 d5bc d589 55bd f069 e7bd 4195 9b3c
00000210: ac57 053d 00c3 033d dcbf ab3d b220 0dbd
00000220: 0598 e1bb 493d dcbc bc80 43bd b355 c6bd
00000230: f24f 87bd cb22 bdbc 996d 703d d504 b53b
00000240: cd5b bf3c 70bf 603b 5bd6 cfbd 4e17 babd
00000250: 323b ab3c 0a48 1ebd a8df 1d3e d3b6 0e39
00000260: 2850 78bd 18c5 3f3d ec98 a13d 6e9d 0c3d
00000270: cea1 0cbc d73f c43d 6a38 a8bd 6188 f4bd
00000280: 0337 8d3c 19fb 72bc 16a4 7bbd e129 e83d
00000290: ca0c e9bb e3a5 49bc 8cbf 2fbd 294a 29be
000002a0: 26d1 8a3b 9a6d c23c 4b53 d2bc 26e8 a53d
000002b0: d755 89bd ca7c 3b3c 3de6 1d3c 8241 c0bd
000002c0: 7563 c83d d271 b43c d964 773d 2285 583d
000002d0: 8c2d a3bd 4a20 f63c b830 8a3c d164 6cba
000002e0: 301f 2bbe bb89 d83d a4d6 d43d 093e 79bd
000002f0: 4ead 04bd 2717 2b3d 90df ac3d 8da7 2d3d
00000300: 5c65 363d 7aa5 f7bb 2c28 85bd 9ba6 183d
00000310: d880 47bd df3b 623d f486 c73c fa4c c2bc
00000320: 4b76 953d d152 7bbc 6fa5 87bd 0d88 d4bc
00000330: e87b bbbd 961f 94bd b95f 353d 2013 f2bc
00000340: 7270 7dbd 5b40 fb3b a0e9 2ebc f544 85bc
00000350: 2d5a 3bba f9b2 00bd 5005 1abc a633 9b3c
00000360: a602 3e3c afda b03b 6a99 083c af96 fbbc
00000370: 240d 0a3c f862 c4bb 1b1b 18bc 51e8 c43c
00000380: 2fb8 f7bb d421 fe39 05e6 163c f342 6a3d
00000390: 6f68 c8bc d876 3d3d 514d 6ebb d3f6 a7ba
000003a0: 0efb f03c 4eca b4bd f31c b63b edc4 83bb
000003b0: 78a7 873c ff83 c6bc 3577 e03b 3bc4 783d
000003c0: 75b4 e9bc f533 91bd 269b 9ebc 41d6 34bd
000003d0: 10df 46bc 6de4 a23a c68c 95bd c476 443d
000003e0: 9f47 f4bc 2dd9 b23c db5d c8bd 023c bf3d
000003f0: 97d9 e5bb de50 88bd f29a 7d3d d854 9d3b

fc1.bias f4 [32]
-0.048285086 -0.061852135 -0.032235872 -0.03276268 -0.044374596 -0.05652686 -0.03810057 -0.010006829
-0.024791202 -0.008188723 -0.032632556 -0.05471551 -0.028517723 -0.0278364 -0.05439501 -0.06471872
-0.011846642 0.008648131 -0.06387784 -0.037132766 -0.05196292 -0.07806215 -0.030980146 -0.03382815
-0.06137604 -0.042398874 -0.067226544 -0.036290154 -0.01644154 -0.027830457 -0.013500967 -0.0070642973
00000000: 95c6 45bd aa58 7dbd c309 04bd 2932 06bd
00000010: 23c2 35bd b588 67bd 580f 1cbd aff3 23bc
00000020: eb16 cbbc fe29 06bc b7a9 05bd 5f1d 60bd
00000030: 009e e9bc 2909 e4bc 4dcd 5ebd 408b 84bd
00000040: 6b18 42bc e4b0 0d3c 63d2 82bd 8718 18bd
00000050: 12d7 54bd 0cdf 9fbd 13ca fdbc 638f 0abd
00000060: 7165 7bbd 71aa 2dbd 12ae 89bd fca4 14bd
00000070: 69b0 86bc b3fc e3bc 2933 5dbc 9f7b e7bb

fc2.weight f4 [3, 32]
0.46811268 -0.31089598 0.30745178 -0.5573528 -0.6574139 0.32391456 -0.1488896 0.5755181
-0.6386008 0.35790804 0.6658611 0.62224764 -0.71046805 -0.3816215 -0.22246182 -0.44331133
-0.73806584 0.47376496 0.75542396 -0.06025828 0.6340619 0.17108473 0.28993332 0.48386347
-0.38416073 0.37345067 0.77995753 0.5627059 -0.5078998 -0.44246137 0.45508537 -0.44498652
-0.2909779 -0.27301142 -0.4621629 0.273731 0.15825747 0.3475876 -0.2503113 0.22028321
-0.040849987 -0.20506789 -0.12417645 -0.3600691 -0.059641853 0.42963564 -0.63624305 0.112558305
0.018536143 -0.40466532 -0.20764308 0.32396215 -0.5380522 -0.4428382 -0.3962524 -0.49475726
-0.5174785 0.45049834 -0.31951872 -0.52496606 0.51199734 0.6754651 -0.45994952 0.38994554
-0.5689888 0.5745562 0.34616604 -0.43344718 0.13011947 -0.36729217 0.6988433 -0.23241416
0.20244695 -0.49296653 -0.48820913 -0.34885368 -0.043407626 -0.096858785 0.3367172 0.63236207
-0.14016823 -0.34956565 -0.23138517 -0.5368477 -0.3694558 0.61990845 0.30270126 -0.4197284
0.5617018 -0.106449865 -0.43687764 -0.2687925 0.1572641 -0.166396 -0.49991867 0.5413886
00000000: 77ac ef3e c22d 9fbe 526a 9d3e acae 0ebf
00000010: 474c 28bf 21d8 a53e 8476 18be 2755 133f
00000020: 587b 23bf b93f b73e e075 2a3f 9f4b 1f3f
00000030: 3ce1 35bf e563 c3be 08cd 63be b4f9 e2be
00000040: e2f1 3cbf 5291 f23e 7763 413f 63d1 76bd
00000050: e151 223f d630 2f3e 2472 943e f4bc f73e
00000060: b7b0 c4be ed34 bf3e 4cab 473f 7e0d 103f
00000070: b905 02bf 4c8a e2be f300 e93e 46d5 e3be
00000080: 0efb 94be 27c8 8bbe 9ea0 ecbe 7826 8c3e
00000090: 3f0e 223e 00f7 b13e cd28 80be ec91 613e
000000a0: 5152 27bd 51fd 51be 3950 febd fa5a b8be
000000b0: 044b 74bd 34f9 db3e d3e0 22bf f884 e63d
000000c0: 1cd9 973c 4b30 cfbe 63a0 54be 5ede a53e
000000d0: cabd 09bf b0bb e2be 98e1 cabe d350 fdbe
000000e0: 7979 04bf b8a7 e63e f597 a3be 2d64 06bf
000000f0: 4212 033f 48eb 2c3f 817e ebbe f1a6 c73e
00000100: 40a9 11bf 1d16 133f ad3c b13e caec ddbe
00000110: 0a3e 053e b80d bcbe 65e7 323f fafd 6dbe
00000120: 414e 4f3e 1c66 fcbe 8cf6 f9be f39c b2be
00000130: 32cc 31bd e65d c6bd 3266 ac3e 7be2 213f
00000140: 4388 0fbe 45fa b2be 3cf0 6cbe da6e 09bf
00000150: 5029 bdbe 52b2 1e3f a9fb 9a3e a4e6 d6be
00000160: b0cb 0f3f 6302 dabd 6dae dfbe 2c9f 89be
00000170: d709 213e b763 2abe 57f5 ffbe 7198 0a3f

fc2.bias f4 [3]
-0.060033854 0.039198685 0.017269844
00000000: 0fe6 75bd cd8e 203d 7d79 8d3c
