models/AXP_model.pt (torch, 473816 bytes, 8 tensors)

conv1.weight f4 [32, 1, 3, 3]
00000000: 0289 63ae c8de 1fa2 9fbb 34a2 42ac 95ba
00000010: 0b80 923d cf2f 1eba a11b 8bbb df1c 81bc
00000020: 9e5c 7b2f 6aa4 353e 8c50 55b4 83f6 223e
00000030: 43b0 903b d1ca 07b9 1298 c0bb b8ff a5b5
00000040: 32d0 ee39 8013 da3d acdf 14b7 58ea 21bc
00000050: 3027 1a3e 2031 05a3 2bcd 0c3c 67b6 033e
00000060: 9358 8122 2182 92bb 37d9 4e3e c80b dcb3
00000070: eb48 33a3 b468 cf3d 02be 5bb9 8b4e 0b3c
00000080: e93e 3cbd 2370 9cbb 7a13 98b7 2a0f 863c
00000090: 071a 6bb9 08a3 34b3 86d2 242d 56d0 14bb
000000a0: 2fec 3dbb c35b 9bb1 c100 1624 bdef feba
000000b0: 83b3 8cb9 fbbc c13b 9069 ae39 a5e2 9aa5
000000c0: e8f2 87bd 8ff8 e1b4 d2ff c735 0ac6 553d
000000d0: 2cce cbba 40f7 04b9 0a1c fabc 3b16 7cb8
000000e0: e280 833d 2fb2 673d 7dac a83a 2617 1bbc
000000f0: 1ff9 c1b2 801a 0436 9cac febb a4a8 2fbc
00000100: 6f27 3fb2 b516 2fbd c206 5dbc 8b15 a83b
00000110: 6a86 a7bb a697 eea2 f8f8 3fb6 1cb8 163e
00000120: 4e2d 2bba 4b15 2da8 08f8 293d 902f 2939
00000130: a5be 2923 f5d9 b4bc f41a 38ba aef5 64b8
00000140: 69dd 4b3d 2242 64b1 1a51 493e 4ff7 bd3d
00000150: 9d65 b1a5 60ab ac3d bc5b a4bd 22ea e5a0
00000160: 912d e93b d7fa ca3d fc11 c93d 06cd c83c
00000170: 8505 03a2 aaa3 0b3c fa0d 46b9 ab69 89a4
00000180: ee53 033c 8931 fd3d f598 4122 882a 253e
00000190: 7325 bd36 a462 543c 5f9b 35be bb22 9721
000001a0: 2627 e739 8b3c 17bc 5a4f 8db7 502b 9c3a
000001b0: 5e84 b8bc b9f9 4c3c 3655 833d 5bc6 e13d
000001c0: 5108 8f3c ad0c 8e3d 6267 00bc e411 a7bb
000001d0: 0072 ed3b 3005 85b8 c83f 033e 45eb c53a
000001e0: af41 6c26 6da0 db3b 1d60 af3d 0f98 3620
000001f0: 2c90 9e3b de2f 843c 324d 4dbe 58ca c41e
00000200: 3ced d5a2 285b e53d 487e 97ab abe0 21bc
00000210: e332 f23d 0b9a a321 7b77 2336 9478 213d
00000220: f691 c03d 87af 69a2 f1b0 7b3c 876d 29bc
00000230: ceb7 2222 9b36 d8bc 1c71 f23d 6c5d d3a1
00000240: 7d52 cc3d b002 e33c 5e57 0f38 8c63 443c
00000250: 211c bc3b 6c21 aabb ab3e e63b ff01 623d
00000260: ba2b 943d 8349 d0bb 50eb b23d 592b 34ba
00000270: 9354 9cbb da50 793d ae8d 083b eb08 7a3c
00000280: e606 0b3e 2460 0122 3039 193c dfc0 603d
00000290: e5f8 34b4 e9a1 13bd 0f19 d43d 58bc 16b4
000002a0: 7833 003d bf46 27bd a34b 59bb fe4a 7234
000002b0: 2afb 6d25 7971 1bbd 3031 662e c47c 19bc
000002c0: c78d 0fbb c975 50bc ff09 41a2 e3d9 023d
000002d0: e773 e23c 9b7b a73c 943e 85a4 633a 043d
000002e0: c76c c23c a87f 5e20 2075 ba3d f573 29bb
000002f0: 7f79 2e38 c8bf 8eba d37c 1aba b235 5622
00000300: 090b b73d 1792 0bb2 4457 2933 4e69 8e3d
00000310: 5c79 373d d614 e0b9 360b 0cb9 bbdf a622
00000320: 3c8d 073d 5afc 3ab1 f43e 9320 5ef2 a73a
00000330: da8e 9e28 2ba0 b0af baf1 30bb 7909 6fb8
00000340: 7516 d13d 44a4 aebb a192 cfa0 c503 c7bc
00000350: 0033 de35 b7e5 aeb9 4a46 c2bb 6c9a 59b6
00000360: 44e1 08bc 4fa7 872a 0979 72a1 152d c039
00000370: 2e56 02bb 3036 4abc de96 3fba 5080 613c
00000380: 27d7 cfa3 30af 173d 4421 c2ba a5c5 7bba
00000390: 02e2 77bb 7ee3 e820 b868 003a c939 f6bc
000003a0: ac84 8b35 259b db39 5eb3 e63d 9762 ba3d
000003b0: cca3 7526 bdf7 553d 9ab7 ecbc 9ed6 9224
000003c0: 0f5f 4b3c 0b28 123b eed1 79b0 35aa ce3c
000003d0: 9b3e 0624 fa19 502b a687 ea3b 5e8f 60b7
000003e0: b244 91bb d608 713a 25b7 17bb d0a9 2cb2
000003f0: b7ba cb3c 6e79 09be a1b0 71bc b1ea 80b6
-5.173551e-11 -2.1666458e-18 -2.4493875e-18 -0.0011419135 0.071533285 -0.0006034346 -0.004245237 -0.015760837
2.2861221e-10 0.177385 -1.9866474e-07 0.1591435 0.0044155433 -0.00012950158 -0.005877503 -1.2367882e-06
0.00045550015 0.106482506 -8.873565e-06 -0.009882532 0.15054011 -7.220347e-18 0.008593838 0.1286255
3.50593e-18 -0.004471079 0.20200048 -1.0246691e-07 -9.7190504e-18 0.101273924 -0.00020956251 0.008502613
-0.045958433 -0.00477411 -1.8128881e-05 0.016364653 -0.00022421042 -4.2057792e-08 9.369066e-12 -0.0022707186
-0.0028979888 -4.521526e-09 3.2526704e-17 -0.001945011 -0.00026836628 0.005912421 0.00033266516 -2.6868322e-16
-0.066381276 -4.2090366e-07 1.4901109e-06 0.052190818 -0.0015549115 -0.00012680609 -0.030530948 -6.0102186e-05
0.06421067 0.056566413 0.0012868788 -0.009465968 -2.2581444e-08 1.9684958e-06 -0.0077720415 -0.010721359
-1.1126629e-08 -0.042746264 -0.013490381 0.0051295212 -0.005112459 -6.4670593e-18 -2.8606137e-06 0.1471867
-0.0006529883 -9.608046e-15 0.041496307 0.00016134814 9.201879e-18 -0.022076586 -0.00070230593 -5.4588243e-05
0.0497717 -3.3215959e-09 0.19659844 0.09275686 -3.0773461e-16 0.08431125 -0.080253094 -3.8949045e-19
0.0071160276 0.09911125 0.09817883 0.024511825 -1.7756733e-18 0.008522907 -0.00018887958 -5.959329e-17
0.008015616 0.12362964 2.6237352e-18 0.16129506 5.6369986e-06 0.012962971 -0.1773505 1.0241351e-18
0.0004408892 -0.009230743 -1.684546e-05 0.0011914764 -0.022524055 0.01251071 0.06412737 0.110241614
0.01746002 0.069360115 -0.007837148 -0.0050985683 0.007246256 -6.3429005e-05 0.128173 0.0015100023
8.1967966e-16 0.006702474 0.08563254 1.5466312e-19 0.004838964 0.016136106 -0.20048979 2.0835995e-20
-5.7984947e-18 0.11199027 -1.0764245e-12 -0.009880225 0.11826112 1.1086084e-18 2.435844e-06 0.039421633
0.0940284 -3.1670312e-18 0.01536201 -0.010341055 2.20524e-18 -0.026393225 0.1183798 -1.4322645e-18
0.09976671 0.027711242 3.4175224e-05 0.011986624 0.005740658 -0.0051919725 0.0070265136 0.055177685
0.07234903 -0.0063564195 0.087362885 -0.00068729144 -0.004770824 0.06086812 0.00208364 0.015260915
0.1357685 1.7533656e-18 0.0093520135 0.054871436 -1.6854354e-07 -0.03604308 0.10356342 -1.4038358e-07
0.031299084 -0.040838953 -0.0033156655 2.2565288e-07 2.0641571e-16 -0.037950013 5.2339633e-11 -0.009368125
-0.0021904574 -0.012723395 -2.616167e-18 0.031946074 0.027643157 0.020444682 -5.778557e-17 0.032282244
0.02373351 1.8846369e-19 0.09104371 -0.002585647 4.1597985e-05 -0.0010890896 -0.0005893234 2.9030834e-18
0.08937652 -8.124082e-09 3.9427746e-08 0.06953679 0.04479347 -0.00042740133 -0.00013355617 4.5231274e-18
0.033093676 -2.7210008e-09 2.4944428e-19 0.001281332 1.7603476e-14 -3.212802e-10 -0.002699955 -5.6990863e-05
0.102093615 -0.0053296406 -3.5164195e-19 -0.02429379 1.6555132e-06 -0.00033359017 -0.0059287893 -3.2425405e-06
-0.008354489 2.409691e-13 -8.215298e-19 0.00036654682 -0.0019887793 -0.012342021 -0.0007308553 0.013763502
-2.2534106e-17 0.037032306 -0.0014810939 -0.00096043415 -0.003782392 3.945287e-19 0.0004898417 -0.030056851
1.039492e-06 0.00041886527 0.1126468 0.09100836 8.5223436e-16 0.052238215 -0.028896142 6.368098e-17
0.0124128 0.00223017 -9.0884e-10 0.025227645 2.9109647e-17 7.3932494e-13 0.007157284 -1.3384821e-05
-0.004433238 0.0009194737 -0.0023149934 -1.0050329e-08 0.024869306 -0.13425228 -0.014751584 -3.842019e-06

conv1.bias f4 [32]
00000000: 202c 1db8 ed1e 6abc f62e 6b3c ee9a 15a1
00000010: 4eb9 9da1 99a9 5bb3 31eb 8cbb ce3e 43a5
00000020: 88c4 9d38 5b38 87ba 9d65 1330 7e1b 7621
00000030: a7d7 02b7 f45e 292a c127 3ea2 e79e 053b
00000040: 28fc 9fa4 f643 91a0 aa42 ae9f 99f2 1d3b
00000050: b4b2 bf3b 824d 13a5 69e2 5f22 71db 733b
00000060: fa2d 44ac 8d97 a3bb 7c37 b128 b1e2 902f
00000070: e546 2039 cc90 90a1 c2c1 dba1 6d05 4e35
-3.747281e-05 -0.0142896 0.014354458 -5.068821e-19 -1.0687784e-18 -5.114416e-08 -0.004300498 -1.6934833e-16
7.52295e-05 -0.0010316478 5.362269e-10 8.338443e-19 -7.798814e-06 1.5043159e-13 -2.5770847e-18 0.0020388903
-6.938243e-17 -2.4608928e-19 -7.380215e-20 0.0024100898 0.0058501605 -1.2776478e-16 3.0341996e-18 0.0037209655
-2.7878797e-12 -0.0049924315 1.967501e-14 2.635452e-10 0.000152852 -9.796147e-19 -1.4891305e-18 7.6748876e-07

conv2.weight f4 [64, 32, 3, 3]
00000000: 5351 85a1 ed6b 15bc 8e3e 15a2 3ce6 9020
00000010: f54e 15bc d5f5 dfa2 db1e 73a1 f78e 1cbc
00000020: 4ec6 3d22 7516 283c 883e 1cbc 8bd6 25bc
00000030: e336 13bc 3a03 02bc 6820 1fbc 41bb 15bc
00000040: acf3 1fbc abab f3bb 66e4 7b22 d36f 21bc
00000050: 827e aaa2 be89 a2a3 bb65 16bc 0988 5ea3
00000060: a392 9b23 29d5 28bc 9db3 84a3 bc80 1023
00000070: d9ab 16bc 807e 7723 9847 9fa2 7beb 32bc
00000080: f491 3a20 489d 02a2 80ba 1cbc 0017 7ba3
00000090: fc7a ffa1 569e c49f 1592 cf9f 8ffe 08a1
000000a0: e0fa d8a2 5cb5 20a3 bac4 2021 0ec9 f8a0
000000b0: 0daa a121 1b84 15bc 6e90 b9b9 77b0 f3bb
000000c0: 0cb7 92bb be48 8122 883e 20bc 2a54 acbb
000000d0: bf7d 0dbc 57ed 1c3c 1244 193c c0d8 1cbc
000000e0: 7ae0 fb3b ac20 12bc b0a9 18bc 24f3 1abc
000000f0: 136f 0f3b a6a1 11bc 4713 20bc ef24 e922
00000100: 673a 38bc d1ca 4821 dc86 199f 49a1 f0bb
00000110: afa6 efa0 571d 3a22 d27e 1ebc 117a 7d23
00000120: 1a7c ab22 2742 12bc e294 86a2 e0b8 e91d
00000130: 66df 1dbc 9ec8 9121 7ae4 f522 6d84 16bc
00000140: 1282 eba2 884a 0924 fa00 13bc 6b0c c523
00000150: ebb4 7a23 5c89 0fbc 5679 f623 04d4 3e21
00000160: 46b7 1fbc 6443 e5a3 ca34 103c 2df6 2abc
00000170: 9ed5 1fbc c9a1 07bc 179d 03bc 8385 16bc
00000180: 5149 0d3c abba bcbb 80d4 1dbc 31c8 0f3c
00000190: 9896 22bc db4d 16bc c226 14b8 2813 1dbc
000001a0: 116a 053c 998b 0ebc 20a9 13bc a287 19bc
000001b0: 7182 183c 4b05 203c 51bc 03bc acae 1cbc
000001c0: 5cfe 1abc 7c54 1fbc af07 583b fd41 19bc
000001d0: 0ac5 24bc 2fb2 ee22 2e0b 2cbc daff c4a2
000001e0: 029e 6e23 c28b 19bc 0f53 1aa3 f245 ada2
000001f0: 65c9 1fbc 7445 d321 d53f 8d3b 4c16 2aa0
00000200: 9df4 0abc 5163 19bc 001b 911c d1b1 1bbc
00000210: ca1a fe3b bcee 0a23 c8ac 20bc 9541 1d3c
00000220: 82c0 1bbc 3366 1cbc de84 ffbb 874f 0dbc
00000230: 95ec 24bc 242e 22bc 8c73 153c efa9 1fbc
00000240: 888d bdbb ab07 1ebc d27c 11bc 9228 1a3c
00000250: 8b7e 1abc face 1bbc fd4c 11bc dc83 13bc
00000260: 516b e6bb b91e 17bc 253f 1cbc 7d2b 1ebc
00000270: 9e2d 163c 5d22 19bc 7914 1ebc 91da e3bb
00000280: fa36 17bc 75f1 1f3c 2204 fabb ee49 11bc
00000290: 882b 6e21 e74c 673b 9046 2b3c 2f9b 1abc
000002a0: d8a8 5bbb d5a0 12bc 1aed 113c 623e 06a0
000002b0: d932 1ebc 2217 44a2 5f62 8423 4b38 1dbc
000002c0: 0823 0a22 2e30 1b23 b8a3 11bc db1f ab21
000002d0: 77a6 f83b 5a71 22bc 3026 1abc b234 19bc
000002e0: cb07 05bc 2be6 24bc 7bca 0fbc 21bd 1abc
000002f0: aff6 19bc c271 2e3c 2481 f7bb d94d 12bc
00000300: 9ba0 1cbc a60b 12bc 536b 21bc 7050 0fbc
00000310: 415b e53b 2258 18bc 7157 bda0 e05d 0fbc
00000320: 73ca 24a2 8e01 1122 b6a6 ddbb e41d 61a3
00000330: 5819 4da1 4cf2 1cbc df6a 39a2 ff41 4823
00000340: a0eb 20bc cab8 9a22 7053 8122 39c7 01bc
00000350: 3f82 fa20 fc6f 079d 9559 26bc 75f0 1622
00000360: 8154 2a23 f7fb ae3b e031 0323 d74b 21a1
00000370: 8241 1cbc aa09 26a3 32d9 1121 11a7 193c
00000380: 8c9f 0022 a2cd 073c c822 dabb 0a8f 18bb
00000390: a1a3 08bc 9997 17bc f99b 9bb8 b37f c2bb
000003a0: c49a 13b9 fb97 1abc 7bcc 1b3c a324 12bc
000003b0: 69a0 1cbc 1373 11bc 4d5e 12bc 4253 16bc
000003c0: 7701 10bc 4587 17bc 3db3 17bc 32d1 e33b
000003d0: fb7d c821 bcd4 09bc ba75 7fbb b82c cb1e
000003e0: 278f e5bb b269 a0bb 0ad3 851f 969d 13bc
000003f0: b608 0f3c c8ba b93b 3d59 cbbb 8630 14bc
-9.033957e-19 -0.00911997 -2.0226382e-18 2.4546905e-19 -0.009113063 -6.0704556e-18 -8.237244e-19 -0.00955557
2.5719258e-18 0.01025926 -0.009536393 -0.010121952 -0.008985254 -0.00793534 -0.009712316 -0.009138883
-0.009762686 -0.007436236 3.4137756e-18 -0.009853321 -4.6212538e-18 -1.7622411e-17 -0.009179528 -1.2063451e-17
1.6867237e-17 -0.010304728 -1.4387538e-17 7.833516e-18 -0.009196245 1.3416684e-17 -4.317284e-18 -0.010920401
1.5803105e-19 -1.770155e-18 -0.009565949 -1.3611608e-17 -1.7312026e-18 -8.3271174e-20 -8.790958e-20 -4.64155e-19
-5.881254e-18 -8.712022e-18 5.4470474e-19 -4.214588e-19 1.0954796e-18 -0.009125735 -0.00035393558 -0.0074368077
-0.0044773873 3.504254e-18 -0.009780534 -0.0052590566 -0.008635937 0.009578071 0.009354608 -0.009573162
0.007686672 -0.008918922 -0.0093178 -0.009457383 0.0021886274 -0.008888638 -0.009770221 6.319388e-18
-0.011244393 6.803106e-19 -3.2510563e-20 -0.0073434454 -4.0598477e-19 2.5223233e-18 -0.009673791 1.3741006e-17
4.648104e-18 -0.008926905 -3.647841e-18 6.1865743e-21 -0.009635782 9.878685e-19 6.664929e-18 -0.009186846
-6.3834595e-18 2.977027e-17 -0.008972401 2.1364042e-17 1.3590838e-17 -0.008760776 2.6722761e-17 6.4655104e-19
-0.009748286 -2.485677e-17 0.008801648 -0.010434669 -0.00975552 -0.008278319 -0.008033059 -0.009187105
0.008623437 -0.0057595572 -0.0096331835 0.008775757 -0.0099236 -0.009173836 -3.5322046e-05 -0.009587087
0.008142964 -0.008700275 -0.0090124905 -0.009370716 0.009308443 0.009766887 -0.008040504 -0.009563129
-0.009460058 -0.0097247325 0.0032963564 -0.009354112 -0.010056743 6.469869e-18 -0.010500712 -5.33968e-18
1.2935465e-17 -0.0093717 -8.365945e-18 -4.69658e-18 -0.009752606 1.43163e-18 0.004310588 -1.4406938e-19
-0.008481172 -0.009362058 9.602274e-22 -0.009502844 0.0077546583 7.531549e-18 -0.009806819 0.0095981555
-0.009506347 -0.009545851 -0.0077978214 -0.008624918 -0.010066171 -0.009898696 0.009121787 -0.009745105
-0.005784694 -0.009645383 -0.008879857 0.009409087 -0.009429584 -0.009509796 -0.008868453 -0.009003606
-0.007031836 -0.009223633 -0.009536539 -0.009653923 0.009166149 -0.009346572 -0.009648436 -0.0069535454
-0.009229416 0.009762158 -0.007629887 -0.008867724 8.069515e-19 0.003529364 0.010453835 -0.009436413
-0.0033517387 -0.008949478 0.008906627 -1.1370882e-19 -0.009655678 -2.65752e-18 1.435313e-17 -0.009595941
1.8721033e-18 8.412769e-18 -0.008889131 1.1595843e-18 0.0075882035 -0.00991472 -0.009408519 -0.009350942
-0.008119534 -0.010064642 -0.008776302 -0.009444506 -0.009397193 0.010647239 -0.0075532366 -0.008929693
-0.009559776 -0.00891391 -0.009852248 -0.008747205 0.0069994037 -0.009298356 -3.207571e-19 -0.008750409
-2.233332e-18 1.9651987e-18 -0.0067642583 -1.2203604e-17 -6.9490244e-19 -0.009579252 -2.5128752e-18 1.0855997e-17
-0.009821802 4.1937437e-18 3.5053863e-18 -0.007921034 4.2437837e-19 -1.7924996e-21 -0.010153194 2.0456088e-18
9.233613e-18 0.005340095 7.112086e-18 -5.4649295e-19 -0.009537103 -9.0009245e-18 4.9415367e-19 0.009378211
1.7431698e-18 0.008288773 -0.0066569783 -0.0023278617 -0.008339793 -0.009252452 -7.420028e-05 -0.005935633
-0.00014076667 -0.009435649 0.009509201 -0.008919868 -0.009559729 -0.0088775335 -0.008933616 -0.009175124
-0.008789412 -0.009248559 -0.009259042 0.0069524283 1.3585874e-18 -0.008412536 -0.0038980083 2.1511956e-20
-0.0070055905 -0.0048954124 5.6676826e-20 -0.009009739 0.008730104 0.005668018 -0.0062057064 -0.009044772

conv2.bias f4 [64]
00000000: 04c6 c322 1607 6da2 ee58 939f dc4a 4ea1
00000010: 68ab d722 73f2 b3a2 a191 14a1 78be e421
00000020: 4385 e1a1 5581 0623 83c0 3523 db9a 67a1
00000030: c931 83a2 faef 94a3 2c0a 40a1 ddeb a620
00000040: 81cd 4ba1 cf3a 36a3 56d3 c5a0 ca80 39a3
00000050: 24fe 6023 0604 11a2 2844 7e23 333f 17a1
00000060: 4830 28a1 0b72 09a3 e000 f121 c0a2 889e
00000070: dcac 3422 1b96 85a0 dd6a 5121 273a 8321
00000080: f2fa 5fa1 d5b9 0822 e1a7 0123 de7c 61a2
00000090: fb8b 9d21 3180 72a1 dfcc b622 48fd c1a0
000000a0: d3c0 77a0 2eba 87a3 724f 3b22 b833 b3a2
000000b0: 4c16 6e1e a41f 8121 3e4a 0723 0997 a7a1
000000c0: 2840 c6a1 2720 0922 55a3 1123 05f9 37a3
000000d0: 2c6e e321 70d9 0922 d560 d3a2 782f f9a1
000000e0: 61c7 8a22 09e3 9ca1 f944 a221 9b38 11a2
000000f0: 4b3f 27a3 08bf 92a2 9b25 5023 8714 a122
5.3064513e-18 -3.212324e-18 -6.2404043e-20 -6.989459e-19 5.845735e-18 -4.877475e-18 -5.033709e-19 1.5500298e-18
-1.5281867e-18 7.291542e-18 9.852796e-18 -7.8470794e-19 -3.5560333e-18 -1.6147826e-17 -6.5065593e-19 2.8277575e-19
-6.905106e-19 -9.878693e-18 -3.3512949e-19 -1.0056142e-17 1.2196881e-17 -1.9653294e-18 1.37838e-17 -5.1244433e-19
-5.6984514e-19 -7.4509344e-18 1.6331027e-18 -1.4466872e-20 2.448606e-18 -2.2630408e-19 7.0953387e-19 8.892298e-19
-7.588746e-19 1.8529816e-18 7.028654e-18 -3.055929e-18 1.0675786e-18 -8.216245e-19 4.9548115e-18 -3.286308e-19
-2.0985514e-19 -1.471558e-17 2.5385284e-18 -4.8572807e-18 1.2604226e-20 8.749755e-19 7.334086e-18 -1.1356339e-18
-1.3433984e-18 1.8583984e-18 7.895053e-18 -9.973182e-18 1.5411281e-18 1.8682073e-18 -5.729419e-18 -1.6885461e-18
3.7616076e-18 -1.0631067e-18 1.0995804e-18 -1.9681131e-18 -9.066491e-18 -3.977564e-18 1.1283666e-17 4.366087e-18

fc2.weight f4 [3, 128]
00000000: a25e b8a2 1d14 9822 6208 dba1 1e31 0d22
00000010: a9d4 8ba4 7981 f622 bbaa 0e23 62a7 d222
00000020: 94c9 411f 8411 7b26 49e6 86a1 b5ca 8e22
00000030: 9442 e7a2 ad79 a1a3 9d6c 8324 c075 e523
00000040: 109d 3ca0 fd18 f0a2 5efa 6722 bfe6 aba2
00000050: 7059 3222 1941 eaa0 3163 86a5 5ee6 ff24
00000060: 0b4c 9724 8911 fe21 e5fe 1024 4b12 3fa3
00000070: 8978 2b22 6a56 8822 a617 7e1f 0f7a 0923
00000080: 34ff 5024 c3b9 a0a1 a9f0 5ea1 1707 3c21
00000090: 8abc 48a1 9294 5322 fd0f d3a2 9f5e c9a1
000000a0: 9058 091e 7cff 0ca3 0a26 38a4 60c5 86a0
000000b0: 3d5c 9ba1 85a7 2ca2 c7c7 1a21 df8a 09a5
000000c0: 13d9 0126 1a5d 4da8 016a f921 0ca5 5526
000000d0: 4954 0b23 78dc f923 3557 2820 db1c bf22
000000e0: 0e33 1d20 03b4 88a3 6a9c d9a0 5c6b 2520
000000f0: 1c96 1323 1682 3120 7341 18a4 0209 d922
00000100: 2d80 5424 1030 6420 4382 ad22 b501 ff21
00000110: d366 00a3 26ec 9aa5 7052 2022 7f67 ed21
00000120: 1b25 6723 9f0f bda0 f6ee c120 b230 db25
00000130: bd52 88a2 80aa 5aa3 96b5 4623 4817 8222
00000140: 26a0 bca1 e61e 20a5 6514 c721 b198 16a0
00000150: bea0 f621 9997 5128 d4e1 bb21 0047 99a2
00000160: b513 48a2 140a 6a23 e61f a79e 6890 6e21
00000170: 94a6 f120 581f d922 3d89 82a0 f5cd 09a2
00000180: 9323 d6a2 dd08 b522 ee9a 7ca4 cf8a dc1f
00000190: 0ef6 979f 3647 9820 b161 84a1 c0d5 d7a2
000001a0: d7c5 8ca0 6e6c a127 a5f8 41a3 86a9 dfa1
000001b0: d89e 29a3 8f95 2622 6d80 8da2 f121 b2a0
000001c0: 1493 ada0 2a9b 38a3 8d42 b5a1 8096 a824
000001d0: 7a10 8621 cbfb 44a3 4ec6 f721 3d1c 8ca1
000001e0: b8fb d3a3 7c4c aca0 3827 d3a0 54fe 7b21
000001f0: 03d3 9622 421a eaa4 de86 4c20 9b08 7f23
00000200: 43e9 923c 0570 163b 671f 0222 b36b 1b3c
00000210: 06e3 5a3c ef8b f2a1 4d9f 0721 0a79 93a3
00000220: 5b3e 183c 748b ae22 c355 8823 9711 5122
00000230: 18b7 1524 c62c 7f3c b5f2 543c 145e 7da5
00000240: 662b ed22 606f 5323 facc b524 bb2e f83b
00000250: 07c1 d43b 4ee2 9aa0 26c6 f127 a0c0 f9a0
00000260: ee33 b83a 4439 8da4 9df4 1c3c 396f 1b3c
00000270: 6e02 0724 b2c8 e827 da21 4f23 3bdc 5723
00000280: 7b04 7aa4 e76e 66a4 daf2 583c c69e 8024
00000290: 8fa6 96a5 6d07 8c24 800b 0ea1 ae40 163c
000002a0: 8802 9aa1 fc0a 1424 a20d d03c d02a 273c
000002b0: c4da a425 a176 133c 994a f822 81a3 a7a1
000002c0: aae7 8d3c f5a2 1c3c 976b a2a3 4acc 9f20
000002d0: eed3 2ca2 391a 2ca3 0e39 1f3c 44f4 3525
000002e0: 9e64 73a8 21a4 22a3 ccb4 9c25 fe0b e63b
000002f0: 83d3 8e22 b0ab 84a3 2ed3 79a1 e0b2 ad20
00000300: e8a6 1f3c 58e3 74a2 99bf 10a3 fa9c bf21
00000310: 547f 433c 85ea 18a3 ba07 343c 3d0f 1e23
00000320: caed 75a1 4c6b c521 6898 5ea2 fbaf 24a2
00000330: 8318 333c 74bd 46a2 4693 a921 fc79 e53b
00000340: d583 26a1 b4a9 f721 63a3 b5a2 6eb6 2c3c
00000350: f61c 613c 6c4d 7121 61a5 2b3c 0199 1f3c
00000360: 8800 bfa2 247b e7a1 e533 7aa2 5c6a 05a5
00000370: 26ff 4923 c129 aa9f 4e41 bba2 3b15 1c3c
00000380: 166e 39a6 fa10 85a1 64fb 97a0 b36f d73b
00000390: b8aa 7ca1 deea 2b20 cd75 393c a66e eb21
000003a0: 650b 1928 beb6 0da5 ce40 1d3c d355 6521
000003b0: 7c90 223c 40e0 4b22 e054 3d3c b4de dc9e
000003c0: 8015 62bb bf88 fe20 acc4 29a0 dd16 a5bb
000003d0: f642 6b21 661c 413b 8211 b522 fe35 523c
000003e0: d165 1ca3 74d9 1e3c 6222 943c 3561 1a22
000003f0: 0b25 36a5 3468 8223 a31e 3c3c fb47 181f
-4.9973496e-18 4.122098e-18 -1.4842236e-18 1.9135066e-18 -6.06419e-17 6.681552e-18 7.733989e-18 5.7097838e-18
4.103608e-20 8.7106857e-16 -9.141149e-19 3.87038e-18 -6.2683168e-18 -1.7507187e-17 5.699619e-17 2.4878099e-17
-1.5976187e-19 -6.5078588e-18 3.143888e-18 -4.6593955e-18 2.4170846e-18 -3.968422e-19 -2.331251e-16 1.1097888e-16
6.561463e-17 1.7216351e-18 3.1440927e-17 -1.03580044e-17 2.3238632e-18 3.695437e-18 5.3806154e-20 7.452632e-18
4.5318976e-17 -1.0891192e-18 -7.5535037e-19 6.370626e-19 -6.8012165e-19 2.8674485e-18 -5.7208593e-18 -1.3645336e-18
7.271034e-21 -7.643516e-18 -3.993086e-17 -2.2831095e-19 -1.0527624e-18 -2.339903e-18 5.2441633e-19 -1.1929907e-16
4.5050056e-16 -1.1399974e-14 1.6900955e-18 7.41229e-16 7.553053e-18 2.7090006e-17 1.4259008e-19 5.1801206e-18
1.331531e-19 -1.4821387e-17 -3.6864736e-19 1.4011566e-19 8.000673e-18 1.5035525e-19 -3.3015184e-17 5.8827505e-18
4.607874e-17 1.9328254e-19 4.7029664e-18 1.7279924e-18 -6.960668e-18 -2.6874762e-16 2.1727685e-18 1.608714e-18
1.25303925e-17 -3.2028183e-19 3.2853603e-19 3.8023441e-16 -3.6950476e-18 -1.18539085e-17 1.0772054e-17 3.526122e-18
-1.2781766e-18 -1.3888257e-16 1.3490163e-18 -1.2756016e-19 1.6712157e-18 1.1634703e-14 1.2731389e-18 -4.1545907e-18
-2.7115487e-18 1.26872995e-17 -1.7695006e-20 8.0828657e-19 4.093722e-19 5.8851154e-18 -2.2113673e-19 -1.8675995e-18
-5.804248e-18 4.9069533e-18 -5.477502e-17 9.3403264e-20 -6.435805e-20 2.5796925e-19 -8.970527e-19 -5.8502183e-18
-2.3847842e-19 4.4804036e-15 -1.05152035e-17 -1.515594e-18 -9.195145e-18 2.257637e-18 -3.8354103e-18 -3.0176833e-19
-2.9404668e-19 -1.0007517e-17 -1.2282653e-18 7.311334e-17 9.084555e-19 -1.06785005e-17 1.6789862e-18 -9.494244e-19
-2.2983273e-17 -2.9188546e-19 -3.5770743e-19 8.537871e-19 4.0881e-18 -1.01525806e-16 1.7324096e-19 1.38254e-17
0.017933493 0.0022954952 1.763491e-18 0.009486127 0.013359791 -1.6435598e-18 4.595061e-19 -1.5989034e-17
0.00929221 4.7310446e-18 1.4781471e-17 2.8334094e-18 3.246431e-17 0.01557464 0.012997319 -2.1976127e-16
6.428493e-18 1.14619175e-17 7.884348e-17 0.00757393 0.006492737 -2.623837e-19 6.710577e-15 -4.230971e-19
0.0014053562 -6.1246014e-17 0.009579805 0.009486967 2.9275517e-17 6.461053e-15 1.1228661e-17 1.1701809e-17
-5.4213904e-17 -4.9967238e-17 0.013241494 5.5780124e-17 -2.6133717e-16 6.07279e-17 -4.812669e-19 0.009170694
-1.0436116e-18 3.210169e-17 0.025397126 0.010203078 2.8597706e-16 0.009000451 6.729952e-18 -1.1359639e-18
0.01732238 0.009560336 -1.7609641e-17 2.7070835e-19 -2.3422541e-18 -9.3296915e-18 0.009718193 1.5782008e-16
-1.3511028e-14 -8.816793e-18 2.71842e-16 0.0070204725 3.8713124e-18 -1.4384181e-17 -8.4643976e-19 2.942571e-19
0.009744383 -3.3188521e-18 -7.846828e-18 1.2984215e-18 0.011932213 -8.289598e-18 0.01098817 8.568424e-18
-8.332394e-19 1.337764e-18 -3.0167293e-18 -2.2319308e-18 0.010931137 -2.69343e-18 1.1490868e-18 0.007003067
-5.6417466e-19 1.6782291e-18 -4.923314e-18 0.0105415415 0.013739815 8.1756443e-19 0.010476441 0.009741069
-5.1771216e-18 -1.5685764e-18 -3.390879e-18 -1.1571947e-16 1.0950262e-17 -7.2066877e-20 -5.0755596e-18 0.009526546
-6.4333963e-16 -9.016924e-19 -2.5746751e-19 0.006574595 -8.5606865e-19 1.4561974e-19 0.01131959 1.5953508e-18
8.495677e-15 -1.2291716e-16 0.00959797 7.7701805e-19 0.009922143 2.7630347e-18 0.01155588 -2.3385514e-20
-0.0034497678 4.3119765e-19 -1.437993e-19 -0.005038126 7.970972e-19 0.002946639 4.9078685e-18 0.012830256
-8.478337e-18 0.0096954 0.018082801 2.0922353e-18 -1.5798534e-16 1.413876e-17 0.011481914 3.2246793e-20

fc2.bias f4 [3]
00000000: 1b6a 85a5 30ea f023 ac69 49a4
-2.3143722e-16 2.6120034e-17 -4.3674435e-17

fc1.weight f4 [128, 768]
00000000: 91e1 f2bc 9594 b83b 449c 643a 1d5a 283c
00000010: bb1a d83c 7184 8dbc 0a11 103d 1441 12bd
00000020: a2d0 403c 3a3c 81bc ac3f 073d c3ad adbc
00000030: 9808 84bc ffe2 a1bb ab13 b4bc 79a5 0a3b
00000040: f8de e63c a4bb ffbc c94c 0ebd 3ae4 dabc
00000050: b1a7 3bbc cf70 b03c 8711 e1bc be92 533b
00000060: 0734 26bc 6df8 513c 4923 443c af23 47bc
00000070: 7ee9 58bc f1df 9abb 5435 93bc 52ad 6b3c
00000080: 9895 bcbb bec7 913b 7bf6 acbc 654d 84bc
00000090: 3f46 3abc dfb9 98bb 9916 ef3b fc96 8bbb
000000a0: 2e17 db3c a4aa d63c 096d 013d 9c0d 953c
000000b0: e4c9 d43c cdaa 823c 539e ea3c bb9c 603c
000000c0: 3b17 fe3c 46ac ebbc 2edd 0c3d f314 36ba
000000d0: ee9e dc3c c1b3 a63c 093b 8dbc 7359 df3b
000000e0: 6994 db3b 4d6b 053c 0176 d4ba 3de8 bd3c
000000f0: ffd1 7fb9 a5e7 97bb dee7 6ebc 4a8c dbbc
00000100: 8a56 083d 21f4 d63c 419e 073c 8c31 903c
00000110: 0dc9 51bb fb5e ed3c 8c62 4aba 159d 3c3c
00000120: 3f34 0dbd 4022 a1bc 7970 efbc 7e4e d93c
00000130: 1593 c3bc 4559 e0bc f7d4 f43c a587 05bc
00000140: 2934 e6bc 1ef5 073d 2a23 803a d63c 143c
00000150: b9fc 86bb 3978 943c 6f08 0a3a bb25 9b3b
00000160: f780 b2bc 37d8 d33c 9d7b a13b 28df 57bc
00000170: 1fe3 9e3c b2c7 053c 57e5 04bd dc4c 003d
00000180: 2d5e 873c cee3 ddbc 72f2 c2bc 02a6 03bd
00000190: 1f9e bcbc 716d 14bc b462 0e3c d1fc a3bc
000001a0: 3c61 0a3d a845 913c 04a6 403c 517e 903c
000001b0: 3b64 eeb9 bcdc 523b 5abe e1bc f152 f5bc
000001c0: 2aea dc3b 95b1 cfbc fe8d e53c 0c7e 04bc
000001d0: 0216 01bd 2c45 a1bc 66eb 8f3c 7f94 d7bc
000001e0: 46fa 0bbc 6ab5 003c 8f17 c23c 9141 0d3d
000001f0: d435 cb3c 39bc 563c 62f4 4cbc 5eb0 68bc
00000200: 7cb3 8dbc 6533 a8bc acd9 a93c bf9a fd3b
00000210: 79c4 d9bb ca64 873a 1e02 a13c 45ac ff3c
00000220: e045 ebbc c662 dabc 799e 04bd 4043 96bc
00000230: 6e68 d8bc 712d f4bc ae47 953b 1668 333c
00000240: 9f60 dcbc 89f3 67bb b90c b6ba 0f02 ceb9
00000250: 275f 7b3c 2be1 0fbd b2a2 f0ba a67c 85bc
00000260: 7ff5 f9bc cd8f a0bc dcf6 0d3d 9bba ab3c
00000270: 70f7 243b ab8d b1bb f7e2 59b9 e4e9 cbbc
00000280: fb71 d8bc bca4 a4ba 575d 3a3c de15 893c
00000290: efd4 093d 4439 cc3c 4d49 a8bc 9f71 3cbc
000002a0: 5d46 2ebc ed2d 12bd c3c3 4f3c ac37 c2bc
000002b0: f88a bbbc 9185 7dbc 3bcc ffbc 40fa a1bc
000002c0: 0b99 febc 1df0 6cbc d27b 88bc 731c ddbc
000002d0: ec4c 89bc 940c b6bb dc23 8a38 7be0 04bd
000002e0: 76b6 4abc 2ccc 6dbb 3f0a c93c 953e bfbb
000002f0: b804 82bc a67a 96bc 73f1 b03c 8a95 b93b
00000300: b0f3 3dbb 7c95 9e3c 5c0f 08bc f625 e63c
00000310: 1f00 0fbb c9f4 fa3c 262f f8bc 505b 4ebc
00000320: e600 d2bc 012b c03c d2a9 3abc bb34 f13c
00000330: 6318 d9bc 39f0 8a3c 9ef3 0f3c 1224 b6bc
00000340: bb47 c43b 40da c3ba eeb6 00bc 38c0 bcbc
00000350: c867 65bc 1321 073d 7277 edbc 0474 ea3c
00000360: d7ab 11bd 0929 a23b 3c98 07bd a338 dcbc
00000370: b8d2 91bc 2a2d 86ba 3125 56bc 88f0 a9bc
00000380: 6fb2 dfbb 5ad7 bf3c d212 9dbc ce40 463c
00000390: ae68 fd3c b162 053d 42ac af3c 32de 553c
000003a0: c31b 9c3c d8f1 6b3c bc33 01bd 6bff aaba
000003b0: 53d3 e0bc 4162 94bc 54ec 0a3d c301 e73c
000003c0: 40a2 433c 648a 6e3c 6572 bbbc 1a01 b43b
000003d0: ac68 afbc 9441 c5bb 4a3d bd3c 8aa3 07bd
000003e0: 641d 8a3c f5f3 703b 9f45 f6bc dadf e43c
000003f0: 5690 7dbc e75d ff3c aaef 8abc 3f1c f0bb
-0.029648574 0.0056329467 0.0008720795 0.010275391 0.026379934 -0.017275067 0.0351725 -0.035706595
0.011768492 -0.015775789 0.033019707 -0.02120102 -0.01611738 -0.00494039 -0.021982035 0.0021155758
0.028182492 -0.031217404 -0.034741197 -0.026720155 -0.011453555 0.021538166 -0.027474178 0.003228351
-0.01014424 0.012815577 0.011971303 -0.012154504 -0.013239263 -0.004726403 -0.017969765 0.0143845845
-0.0057551377 0.00444886 -0.021113625 -0.016150186 -0.011369287 -0.0046608294 0.007296395 -0.004259942
0.026744451 0.026204415 0.031598125 0.018194966 0.025975175 0.015950585 0.028639948 0.013709242
0.031016937 -0.02876867 0.03439062 -0.00069458707 0.026931252 0.020349385 -0.017240064 0.006816083
0.0067010415 0.008143258 -0.0016209484 0.023182029 -0.00024396925 -0.0046357685 -0.014581649 -0.026800293
0.033285655 0.026239457 0.008277477 0.01760175 -0.0032010705 0.028975954 -0.0007720373 0.011512061
-0.034473654 -0.019669652 -0.029228436 0.026526686 -0.023873845 -0.027386317 0.029886706 -0.008150016
-0.028101044 0.033192746 0.0009776105 0.009047708 -0.0041194824 0.018123733 0.0005265539 0.0047347224
-0.02179001 0.025859935 0.004928066 -0.013175763 0.01939541 0.008165287 -0.032445278 0.0313233
0.016524399 -0.027086165 -0.023797248 -0.03214074 -0.023024617 -0.009059296 0.008690525 -0.020018013
0.033784136 0.01773341 0.011758331 0.017638357 -0.00045469575 0.0032175025 -0.027556587 -0.029946776
0.0067417817 -0.025353232 0.028021809 -0.008086693 -0.03151513 -0.019686304 0.017568301 -0.026315926
-0.008543557 0.0078557525 0.023692874 0.034486357 0.02480594 0.013106399 -0.012509437 -0.014202205
-0.017297499 -0.02053232 0.020733677 0.0077393944 -0.006645736 0.001032972 0.01965433 0.031210074
-0.028719842 -0.026658427 -0.032377694 -0.018342614 -0.026416983 -0.029806824 0.004555664 0.010950109
-0.026901541 -0.003539296 -0.001388929 -0.00039292916 0.01534251 -0.035126846 -0.0018359034 -0.016294789
-0.03051257 -0.01959982 0.03465925 0.020963004 0.0025171898 -0.0054184995 -0.00020779284 -0.024891801
-0.026421538 -0.0012561302 0.011374793 0.01673406 0.033650335 0.02492965 -0.020542765 -0.011501699
-0.010636893 -0.03568833 0.012680951 -0.023708187 -0.022893414 -0.015473739 -0.031225314 -0.019772649
-0.031078836 -0.014461544 -0.016660605 -0.026991105 -0.016760312 -0.0055556986 6.587032e-05 -0.032440644
-0.012372604 -0.0036285026 0.024541019 -0.005836318 -0.01587139 -0.01836903 0.021599507 0.0056635784
-0.002898436 0.01935839 -0.008304443 0.028094273 -0.002182014 0.0306343 -0.03029592 -0.012595013
-0.025635194 0.023458006 -0.011393027 0.02944409 -0.026500886 0.01696025 0.00878611 -0.022233997
0.0059899963 -0.0014942363 -0.007856114 -0.023040876 -0.014001794 0.032990526 -0.02898762 0.028619774
-0.03556427 0.0049487394 -0.033104166 -0.026882475 -0.017800674 -0.0010236849 -0.013070391 -0.020744577
-0.006826691 0.023418117 -0.019174013 0.012100412 0.030933704 0.032564823 0.021444444 0.013053464
0.019056207 0.014400922 -0.03154348 -0.0013046091 -0.027444517 -0.018113257 0.033916786 0.028199082
0.011940539 0.014559362 -0.022881696 0.0054932954 -0.021412216 -0.0060197804 0.023100514 -0.033114947
0.016859718 0.0036766503 -0.030062495 0.027938772 -0.015476307 0.031172706 -0.016959984 -0.007327586

fc1.bias f4 [128]
00000000: 735e acbb c82d 96bc cb1c ae3c 7984 c8bc
00000010: 426a 3ebc 81f3 a23b aba0 cdbc 78c8 1c3c
00000020: 5960 02bd afe6 783b cded 4f3c 89e4 f53b
00000030: d5f6 d4bc c645 83bc 014a e83c 0caa 97bb
00000040: 026f 1139 96bd 173c e453 5abc 0de6 c5bb
00000050: fe62 a83c 94fc 1ebc 273e 15bb c1b5 2bbc
00000060: 4516 873b 9940 b93b 3e02 503c 8173 01bd
00000070: b24c 483c b224 093d b97d d039 0e7c 0dbd
00000080: 9b09 24bc 974e f8bb 6bea d0bc 9173 adbc
00000090: 337e 123c 7b10 a53b 701f 89bc 23e7 fb3b
000000a0: c1b6 b83b 6f7b 89bc c3fc cb3c 6539 023d
000000b0: 4554 dcbb d544 4c3c f04a a2bc 46d0 0bbd
000000c0: 1f37 683c b9d1 973c 3a24 783c 29e0 ab3c
000000d0: 68c6 b83c 334e b5ba 7195 d5bc 8b66 fb3c
000000e0: 57c7 00bd f9ab a9bb a8c0 ffbc d41b c53c
000000f0: 288d abbc ccb7 983c c3ab 2f3c cdf5 b73c
00000100: 164e d43c a887 edbc 2787 aebb 1712 c13a
00000110: fe78 f13c 78c7 853c a7e9 913c 9661 aa3c
00000120: fdd4 fb3b 58d8 33bc d5eb 4dba 6baf aa3b
00000130: 9255 e0bb 21ca e93c 5718 b5bc 734d dbbc
00000140: ba63 d63c c5ee 7d3c adc0 4ebc 7445 e43c
00000150: 98af 063d 5ae5 8a3c 5f5b 87bc c845 0d3c
00000160: f4d4 8cbc 0e42 003b 57e2 10bd e1b1 493c
00000170: 9a2d 073d 60af cf3c 4859 0cbc 5da8 f63c
00000180: edda c1bc e51a da3c d437 383c 21aa 983c
00000190: 2c82 d63c 5506 02bd e73a 11bd 41da a33c
000001a0: f497 ffbc b347 493c 0ba1 fa3b ecc9 073d
000001b0: ac23 f4bc ab8b c23c dd0f 50bc 4431 e8bc
000001c0: d31b 1dbc 69fb 5a3b b7c9 ff3c 390e 69ba
000001d0: 118a a0bb cedc 06bd 7fe2 c23c 5a93 cdba
000001e0: 8986 5c3b 0301 cabb e1d8 a8bb c9b2 b63c
000001f0: 29ee b73c 8872 c83c 3b2f 293c 9079 85bc
-0.0052602827 -0.018332377 0.021253964 -0.02447723 -0.0116220135 0.0049728756 -0.025101027 0.00956928
-0.031830166 0.0037979295 0.0126909735 0.00750405 -0.025996605 -0.016024482 0.0283556 -0.0046284255
0.00013869631 0.009261509 -0.013325665 -0.006039387 0.020555016 -0.009703774 -0.0022772641 -0.010480345
0.004122528 0.0056534526 0.012695847 -0.031604294 0.012225317 0.03348226 0.00039766522 -0.034542136
-0.010012056 -0.007577728 -0.025502404 -0.02117327 0.008941221 0.005037365 -0.016738623 0.0076874658
0.0056370203 -0.01678249 0.0249008 0.031793017 -0.006723913 0.012467583 -0.019811124 -0.034134172
0.014173298 0.01853262 0.015145356 0.020980911 0.022555545 -0.0013832509 -0.026072236 0.030688545
-0.031440105 -0.0051779714 -0.031219795 0.024061121 -0.020941332 0.018642329 0.0107221035 0.022456074
0.02591614 -0.02899535 -0.00532617 0.0014730123 0.029476639 0.016330466 0.01781161 0.020798486
0.0076853023 -0.010976873 -0.0007855271 0.0052088997 -0.0068461383 0.028538765 -0.022106333 -0.02677033
0.0261706 0.015498822 -0.01261918 0.02786515 0.032882303 0.016955066 -0.016523061 0.008622594
-0.017191388 0.0019570622 -0.035372104 0.012310476 0.033002473 0.02535218 -0.008566208 0.030109579
-0.023663962 0.026624152 0.011243779 0.018635811 0.026185118 -0.03174432 -0.035456564 0.020001533
-0.031200387 0.012285161 0.0076485923 0.033151552 -0.029802166 0.02374824 -0.012699095 -0.028343804
-0.009589153 0.0033414012 0.031224115 -0.0008890364 -0.0048992713 -0.03292542 0.023789642 -0.0015684173
0.0033649525 -0.0061646714 -0.005152807 0.022302048 0.02245243 0.024468675 0.010326202 -0.016293317
